…
    (14): EmbeddingBag(11745, 64, mode=sum)
    (15): EmbeddingBag(225322, 64, mode=sum)
    (16): EmbeddingBag(11, 64, mode=sum)
    (17): EmbeddingBag(4727, 64, mode=sum)
    (18): EmbeddingBag(2058, 64, mode=sum)
    (19): EmbeddingBag(5, 64, mode=sum)
    (20): EmbeddingBag(238640, 64, mode=sum)
    (21): EmbeddingBag(18, 64, mode=sum)
    (22): EmbeddingBag(16, 64, mode=sum)
    (23): EmbeddingBag(67856, 64, mode=sum)
    (24): EmbeddingBag(89, 64, mode=sum)
    (25): EmbeddingBag(50942, 64, mode=sum)
  )
  (ti): TotalInteraction(
    (catego_mixing): ModuleList()
    (latent_mixing): ModuleList()
    (catego_LN1): Linear(in_features=27, out_features=27, bias=True)
    (catego_LN2): Linear(in_features=27, out_features=27, bias=True)
    (latent_LN1): Linear(in_features=64, out_features=64, bias=True)
    (latent_LN2): Linear(in_features=64, out_features=16, bias=True)
  )
  (bot_l): Sequential(
    (0): Sequential(
      (0): Linear(in_features=13, out_features=512, bias=True)
      (1): ReLU()
      (2): Dropout(p=0.5, inplace=False)
    )
    (1): Sequential(
      (0): Linear(in_features=512, out_features=256, bias=True)
      (1): ReLU()
      (2): Dropout(p=0.5, inplace=False)
    )
    (2): Sequential(
      (0): Linear(in_features=256, out_features=64, bias=True)
      (1): ReLU()
      (2): Dropout(p=0.5, inplace=False)
    )
  )
  (bot_l_1): Sequential(
    (0): Sequential(
      (0): Linear(in_features=13, out_features=512, bias=True)
      (1): ReLU()
      (2): Dropout(p=0.5, inplace=False)
    )
    (1): Sequential(
      (0): Linear(in_features=512, out_features=256, bias=True)
      (1): ReLU()
      (2): Dropout(p=0.5, inplace=False)
    )
    (2): Sequential(
      (0): Linear(in_features=256, out_features=64, bias=True)
      (1): ReLU()
      (2): Dropout(p=0.5, inplace=False)
    )
  )
  (bot_l_2): Sequential(
    (0): Sequential(
      (0): Linear(in_features=13, out_features=512, bias=True)
      (1): ReLU()
      (2): Dropout(p=0.5, inplace=False)
    )
    (1): Sequential(
      (0): Linear(in_features=512, out_features=256, bias=True)
      (1): ReLU()
      (2): Dropout(p=0.5, inplace=False)
    )
    (2): Sequential(
      (0): Linear(in_features=256, out_features=64, bias=True)
      (1): ReLU()
      (2): Dropout(p=0.5, inplace=False)
    )
  )
  (top_l): Sequential(
    (0): Sequential(
      (0): Linear(in_features=560, out_features=1024, bias=True)
      (1): ReLU()
      (2): Dropout(p=0.5, inplace=False)
    )
    (1): Sequential(
      (0): Linear(in_features=1024, out_features=512, bias=True)
      (1): ReLU()
      (2): Dropout(p=0.5, inplace=False)
    )
    (2): Sequential(
      (0): Linear(in_features=512, out_features=256, bias=True)
      (1): ReLU()
      (2): Dropout(p=0.5, inplace=False)
    )
    (3): Linear(in_features=256, out_features=1, bias=True)
  )
  (DNN_1): Sequential(
    (0): Linear(in_features=26, out_features=26, bias=True)
    (1): Identity()
    (2): Dropout(p=0.5, inplace=False)
  )
  (DNN_2): Sequential(
    (0): Linear(in_features=26, out_features=2, bias=True)
    (1): Identity()
    (2): Dropout(p=0.5, inplace=False)
  )
)
Train split size: 41254893
init_weights
Training [1] loss: 0.448121 AUC: 0.803347 Acc: 0.791717  time: 545.857 s
Validation [1] loss: 0.450591 AUC: 0.800426 TPR: 0.376180 TNR: 0.933173 Acc: 0.790422 Kinf/s: 659.458
Best ACC: 0.790422
Best AUC: 0.800426 ACC: 0.790422
**************************************************
…
